backend/model 1/models/sentiment_model.tflite (tflite, 531664 bytes, 10 tensors)

arith.constant f4 [512]
0	0xbab5d004	-0.0013871198
1	0x39529860	0.00020083925
2	0xbb284b18	-0.0025679525
3	0x3b310a74	0.0027014287
4	0x3b0f4cdb	0.0021865878
5	0xbb229e32	-0.002481353
6	0x3ac859ca	0.0015285548
7	0x3afa85f6	0.001911341
8	0xbb37df8e	-0.0028056833
9	0x3b198ec4	0.0023431042
10	0x3b2ae778	0.0026077908
11	0xbb2f4fd4	-0.0026750462
12	0xbb438756	-0.0029835305
13	0xbae2c0ca	-0.0017299887
14	0xb7923420	-1.7428829e-05
15	0x3b133b21	0.0022465663
16	0xbb0616ac	-0.002046029
17	0x3ab9f7ca	0.0014188227
18	0xbb1c1bae	-0.002382021
19	0xbb36a3b5	-0.0027868573
20	0x3b02f269	0.0019980913
21	0x39ca5162	0.00038589077
22	0x3b3c03b9	0.0028688742
23	0xbb19b1f5	-0.0023452018
24	0x3b20decc	0.002454686
25	0xba1e9022	-0.0006048699
26	0xbac6c41c	-0.0015164646
27	0x391f75ac	0.00015207258
28	0x3af10947	0.0018389606
29	0xbb10111a	-0.002198285
30	0x3b00ddfa	0.0019663558
31	0x3b29068a	0.002579125
32	0x3b1bfc85	0.0023801636
33	0x398a0078	0.0002632176
34	0xba6a13cf	-0.00089293433
35	0xbb2c053a	-0.0026248232
36	0xbaed963a	-0.0018126436
37	0x394b0ada	0.00019363631
38	0x3aacdcc0	0.0013188347
39	0xbb35c8f5	-0.0027738188
40	0xbb323cdd	-0.0027196922
41	0x3b2882f4	0.002571282
42	0x3a9d8cd8	0.0012020124
43	0x3b0a2af7	0.0021082738
44	0xba3fc2f4	-0.0007315122
45	0xbb357380	-0.0027687252
46	0xbaf08804	-0.0018351083
47	0x37c31760	2.3256696e-05
48	0xbb2eb64a	-0.0026658946
49	0x3b284a42	0.0025679027
50	0xbac309b9	-0.0014880217
51	0x3a899277	0.001049592
52	0x3afa1253	0.0019078947
53	0xba3a1496	-0.00070984045
54	0xbb2c3072	-0.0026273993
55	0x3b2efd2a	0.002670119
56	0x3a76dc8a	0.0009417018
57	0x39ab46e6	0.00032668485
58	0xbaebc8da	-0.0017988936
59	0x38c212e8	9.2541624e-05
60	0x3665a780	3.4221157e-06
61	0x3988492d	0.00025994462
62	0xbb2f3b83	-0.0026738353
63	0xbb16b497	-0.0022995824
64	0xbb2a2f53	-0.002596815
65	0x3afa0811	0.001907589
66	0xba9c9210	-0.0011945385
67	0xba6c1b28	-0.0009006732
68	0x3aedd91c	0.0018146369
69	0xbb195ee0	-0.0023402497
70	0x39720ad8	0.00023082958
71	0xbb19b9cd	-0.0023456693
72	0xbb406b74	-0.0029360922
73	0xb936d227	-0.0001743516
74	0x3a85c8ce	0.0010206939
75	0xb97d2958	-0.00024143362
76	0xb9d8cdf8	-0.0004135219
77	0x3b2f1cc5	0.002672003
78	0xb9791bac	-0.00023756799
79	0x3b1fb13e	0.002436712
80	0xbb083cf8	-0.0020788293
81	0xbb3811e3	-0.0028086833
82	0xbb449d12	-0.0030000848
83	0xbb317268	-0.0027076248
84	0x3b02cfaa	0.0019960203
85	0xbae0404c	-0.0017109006
86	0xbb3f655e	-0.0029204707
87	0x3af4d1dc	0.0018678266
88	0xbb14da7c	-0.0022713235
89	0xbb28695d	-0.0025697567
90	0xb9d9586f	-0.00041455353
91	0xbaf5c551	-0.0018750821
92	0xbb390a15	-0.002823477
93	0x3b427042	0.0029668962
94	0x3a20b995	0.00061311695
95	0xbb0bc713	-0.0021328374
96	0xbb24fd8a	-0.0025175535
97	0x3b1db211	0.0024062435
98	0xbb421aea	-0.0029618093
99	0x3b03719b	0.0020056728
100	0xbafafa70	-0.0019148123
101	0x3aa278d6	0.0012395631
102	0x3a7cf433	0.00096494256
103	0xbafbcb2c	-0.001921033
104	0x3b03399c	0.0020023352
105	0x3b21453f	0.0024607924
106	0x3b079ff3	0.0020694702
107	0x3b382f8a	0.0028104507
108	0xbaf34d47	-0.0018562459
109	0x3b22e8a3	0.00248579
110	0x3b346070	0.0027523302
111	0xbb43e7ca	-0.0029892796
112	0x3b313224	0.0027037943
113	0x3a9a65a4	0.0011779559
114	0xb794c790	-1.7735903e-05
115	0xba4e6f35	-0.00078748475
116	0xbb307ee4	-0.0026931101
117	0x3af6cdb1	0.0018829611
118	0xbb3de893	-0.0028977736
119	0x3ace9fdf	0.0015764198
120	0xbb069c60	-0.0020539984
121	0xbb0f2223	-0.0021840415
122	0xbb21c407	-0.0024683492
123	0xbac40a67	-0.0014956713
124	0x3b0724de	0.002062134
125	0xbae8b03a	-0.0017752715
126	0xbb1e6449	-0.0024168661
127	0xb9566b98	-0.00020448712
128	0xbb3f20d1	-0.0029163847
129	0x3b39e7b6	0.002836687
130	0xbb0c2ff1	-0.002139088
131	0xbaf4aa9a	-0.0018666566
132	0xbb3558ee	-0.0027671414
133	0x3b0c57f5	0.002141473
134	0x3ae11e3c	0.0017175148
135	0xbb16b12c	-0.0022993786
136	0x3a83ebcb	0.0010064779
137	0xb9a6f606	-0.0003184529
138	0x3b1c3026	0.002383241
139	0xbb1a7c2e	-0.0023572552
140	0x3abe99de	0.0014541706
141	0xbade8013	-0.0016975425
142	0xbac48c36	-0.0014995399
143	0x3a0032fa	0.00048904086
144	0xbaa3b464	-0.0012489674
145	0xbb311f7c	-0.0027026823
146	0xbaec3534	-0.0018021227
147	0x3b1c58e4	0.0023856694
148	0x3b11af81	0.0022229853
149	0x3b1b91b4	0.002373797
150	0x3b1c2a18	0.00238288
151	0x3b274384	0.002552242
152	0x3b2b3258	0.0026122537
153	0x3b40c59e	0.0029414664
154	0xb8c15db8	-9.2204136e-05
155	0x3b430b58	0.00297614
156	0x3b1d3b1a	0.0023991526
157	0x3aa25ab5	0.0012386652
158	0x3ae91f54	0.0017785826
159	0x3acacdc8	0.0015472705
160	0x3b01b176	0.0019789613
161	0x3b1c697c	0.0023866585
162	0xbacca686	-0.0015613593
163	0xbb1c75ef	-0.0023874005
164	0x3a1c9e35	0.00059745024
165	0x39b7ed4a	0.00035081274
166	0x3b32621f	0.002721913
167	0xbacddc8e	-0.0015705989
168	0xbada1e7a	-0.0016641163
169	0x3a1eefb8	0.00060629426
170	0x3b2fd3c0	0.0026829094
171	0x3b253610	0.0025209226
172	0x3b35e504	0.0027754912
173	0xb9c2c4ac	-0.00037149095
174	0x3b1d5138	0.002400471
175	0x3b236b32	0.002493572
176	0xbb2a0254	-0.002594133
177	0x39c76e30	0.00038038334
178	0x3adf1105	0.0017018622
179	0xba904bf6	-0.0011008966
180	0xbb073e37	-0.0020636448
181	0xbb1ad0ed	-0.0023623065
182	0xba2856e3	-0.00064216385
183	0xb9bd979f	-0.00036161856
184	0xba83d799	-0.001005876
185	0x3b29f710	0.0025934614
186	0x3ad86de2	0.001651224
187	0xbb269c29	-0.0025422669
188	0x3af84402	0.0018941166
189	0x3b1b852c	0.00237305
190	0x3b33b05e	0.0027418355
191	0xbb030db2	-0.0019997177
192	0xbae99ef9	-0.0017823867
193	0xbab5c4a0	-0.0013867803
194	0xbb442723	-0.0029930554
195	0x3acd85f8	0.0015680185
196	0xbb23f0f7	-0.0025015452
197	0x3b255054	0.0025224881
198	0xbadae613	-0.0016700648
199	0xbadba613	-0.0016757868
200	0xbabe8560	-0.0014535598
201	0xbb2af248	-0.0026084352
202	0xbb3773a9	-0.0027992523
203	0xb974d6fe	-0.00023349744
204	0x3abc67d9	0.0014374211
205	0x3a71951e	0.00092156406
206	0xbae2cc75	-0.0017303365
207	0x3b3a30cc	0.0028410433
208	0x3a1efc40	0.000606481
209	0x3b0b333e	0.002124026
210	0xb7609680	-1.3386481e-05
211	0x3b018d47	0.0019768046
212	0x3aa9ff19	0.0012969702
213	0x3a7d58d8	0.0009664423
214	0x3b2c9431	0.0026333446
215	0x3ab57f4c	0.0013847142
216	0xbb177734	-0.0023111822
217	0xbb2f564a	-0.0026754313
218	0x39d1fefc	0.00040053565
219	0x3b014e80	0.0019730628
220	0x3b3365c0	0.002737388
221	0x3b38d57c	0.0028203418
222	0xbae90b62	-0.0017779882
223	0x3b340cf0	0.0027473532
224	0xbb043504	-0.0020173201
225	0x3b35a127	0.0027714462
226	0xbaf4f01a	-0.0018687278
227	0x3b1e5ba7	0.0024163516
228	0x389e9810	7.562351e-05
229	0x3b0c696e	0.0021425146
230	0xbb134d03	-0.0022476322
231	0x3b05d7f0	0.0020422898
232	0x3967fc0c	0.00022123771
233	0xbb37fffd	-0.0028076165
234	0xbaae8f07	-0.0013317772
235	0x3a936595	0.0011245484
236	0x3a3d9ecf	0.0007233442
237	0xb9209264	-0.00015313324
238	0xbb0b880c	-0.0021290807
239	0x3b381d6b	0.0028093706
240	0xbaa5c57d	-0.0012647357
241	0x3b44a570	0.0030005835
242	0xbb2fc2aa	-0.002681891
243	0xbb0f8acc	-0.0021902798
244	0x3b32442e	0.0027201283
245	0xbb018e4e	-0.0019768658
246	0x3b00107e	0.001954108
247	0xb84341c0	-4.6552857e-05
248	0xbb3f52b3	-0.002919358
249	0x3a7e23f6	0.00096946897
250	0x3b3affc5	0.0028533798
251	0x3b21b912	0.002467696
252	0x3b3ce5aa	0.0028823414
253	0xbb376121	-0.0027981477
254	0xbb27a106	-0.0025578155
255	0xbb3a3799	-0.0028414486

arith.constant1 f4 [3]
0	0xbb42e884	-0.002974064
1	0x3b34fcc4	0.002761648
2	0x3b444cee	0.002995308

arith.constant2 f4 [3, 128]
0	0x3e493fb1	0.19653203
1	0x3e490a9d	0.19632955
2	0x3e24a7b1	0.16079594
3	0x3e25fbc9	0.1620933
4	0x3d0cac8a	0.034344234
5	0x3de4e0cc	0.11175689
6	0xbd326f4c	-0.043563172
7	0x3df6cf81	0.12051297
8	0x3dd5a41d	0.10431693
9	0x3df6772d	0.1203445
10	0x3e3cec72	0.18449572
11	0x3e4f82ac	0.20264691
12	0x3dbc722d	0.09201465
13	0x3e1e9d1e	0.15489623
14	0xbce4c27c	-0.027924769
15	0xbe3ae09b	-0.18249743
16	0x3da1a4e0	0.078927755
17	0x3c1ecf39	0.00969296
18	0x3e2af477	0.16694818
19	0x3dff7e58	0.1247527
20	0xbdbf642b	-0.093452774
21	0x3d2ed735	0.042685706
22	0xbd3a0c9b	-0.045422178
23	0xbd4d1635	-0.050070006
24	0x3cfb8698	0.030703828
25	0x3e099265	0.13434751
26	0xbd5ede1f	-0.05441105
27	0xbe5ace5c	-0.21367782
28	0xbe30e23a	-0.17273799
29	0x3dd2124d	0.10257397
30	0xbda61287	-0.081090026
31	0xbe137299	-0.14399184
32	0xbd8eb486	-0.06968026
33	0xbd010ffe	-0.031509392
34	0xbc6d2421	-0.014473946
35	0x3c69f2d1	0.014279083
36	0x3d9348fa	0.071916535
37	0x3e02797c	0.12741655
38	0xbdf7388e	-0.12071334
39	0x3dc359e3	0.09538629
40	0xbcff7108	-0.031181827
41	0xbcf9248e	-0.030412938
42	0xbdc88495	-0.09790913
43	0xbdaadb44	-0.08342603
44	0xbde5be12	-0.11217894
45	0x3e27afa7	0.163756
46	0xbba37e32	-0.004989409
47	0xbdadf0e7	-0.08493214
48	0xbd5aaa1b	-0.05338488
49	0x3db871f0	0.09006107
50	0xbe172df7	-0.14763628
51	0xbe434c78	-0.1907214
52	0xbde699be	-0.11259793
53	0xbddbd8b7	-0.107346945
54	0xbd35fd3b	-0.044430953
55	0xbe3cb65d	-0.18428941
56	0x3d5008de	0.050789706
57	0xbe48c95d	-0.19608064
58	0x3e3fd766	0.18734512
59	0x3d959d45	0.073053874
60	0xbdff85db	-0.12476703
61	0xbd7e2362	-0.062045462
62	0x3db559bc	0.08855006
63	0x3d9efea5	0.07763413
64	0x3d4fbc5a	0.050716735
65	0x3df58409	0.11988074
66	0xbdad0812	-0.08448805
67	0xbdfadd56	-0.12249248
68	0xbdd9d0d6	-0.106355354
69	0xbdedfca6	-0.116204545
70	0xbcd45f95	-0.025924483
71	0xbdec989b	-0.11552545
72	0x3d8e2477	0.06940549
73	0xbd3a6de1	-0.045514945
74	0xbd74751c	-0.059681997
75	0xbd4405b2	-0.047856994
76	0x3d83a2f4	0.06427565
77	0x3d7f1be8	0.062282473
78	0xbe1be5c3	-0.15224366
79	0x3cefb510	0.029261142
80	0x3dd6d3f4	0.104896456
81	0xbd03d060	-0.032181144
82	0x3d2e39dd	0.04253565
83	0x3df877cc	0.121322244
84	0x3ca94cf4	0.020666577
85	0xbe569fe4	-0.20959431
86	0x3e310256	0.17286047
87	0x3e570a66	0.2100006
88	0x3dda548c	0.10660657
89	0x3e0e56b0	0.13900256
90	0xbde941a7	-0.11389475
91	0x3e1ff5bc	0.15621084
92	0xbe285ea0	-0.16442347
93	0x3d9650ef	0.073396556
94	0x3dd23dc7	0.10265689
95	0x3e50df79	0.20397748
96	0x3954d390	0.00020296709
97	0x3dded31b	0.10880109
98	0x3e52684a	0.20547596
99	0xbe57659a	-0.21034852
100	0xbd8330bc	-0.0640578
101	0xbc78a05c	-0.015174951
102	0x3e19a5dd	0.15004678
103	0x3cf30f45	0.029670367
104	0xbde04c6e	-0.10952078
105	0x3d8a2fe5	0.067474164
106	0x3d0e7058	0.034775108
107	0x3e0642f4	0.13111478
108	0xbdee7e42	-0.116451755
109	0x3cb16db2	0.021658752
110	0x3e544f37	0.20733343
111	0x3dbe9882	0.09306432
112	0x3e488d78	0.19585216
113	0x3e38fc1d	0.18064924
114	0xbe18d3e1	-0.14924575
115	0x3b7d70b8	0.0038671922
116	0xbe315e04	-0.1732102
117	0x3ddf6565	0.10908011
118	0x3e452830	0.19253612
119	0xbc005c1a	-0.007834459
120	0x3d580123	0.05273546
121	0x3d18ef39	0.037337516
122	0xbdcbbf2b	-0.09948572
123	0x3e517243	0.20453744
124	0x3d942156	0.07232921
125	0x3dd4e9a4	0.10396126
126	0xbe0034df	-0.12520169
127	0x3d0d7647	0.034536626
128	0xbd93e662	-0.072216764
129	0x3e4e39d8	0.20139253
130	0x3d467bf0	0.04845804
131	0x3e3a38c3	0.18185715
132	0xbcdb0155	-0.026734034
133	0x3e3ac3f1	0.18238808
134	0xbe579fb8	-0.21057022
135	0x3dddf68b	0.1083804
136	0xbdb57420	-0.0886004
137	0xbe05806c	-0.1303727
138	0x3b810ab9	0.003938046
139	0xbd6d885d	-0.057991374
140	0xba050300	-0.00050739944
141	0xbda0a3a2	-0.078437105
142	0xbe1787ab	-0.14797847
143	0x3d7f78b0	0.062370956
144	0x3d963b14	0.07335487
145	0x3e0191db	0.12653296
146	0xbd90db6a	-0.070731
147	0x3e4dac0e	0.20085165
148	0x3d2b553e	0.04182934
149	0x3d926c41	0.07149554
150	0x3e3f7f5b	0.18700926
151	0xbd2b5233	-0.04182644
152	0xbcd06885	-0.025440464
153	0xbe410865	-0.18850859
154	0x3da5ae87	0.08089929
155	0xbdcba9a5	-0.099444665
156	0xbe4132ad	-0.18866988
157	0xbe403bee	-0.18772861
158	0x3d1d45a5	0.038396496
159	0xbdeeaac4	-0.11653665
160	0x3e062650	0.13100553
161	0xbd664fde	-0.05622851
162	0xbd270d9f	-0.040784474
163	0x3db30e81	0.08743001
164	0x3de1cac7	0.11025005
165	0xbe067f8f	-0.13134597
166	0x3d2600d3	0.04052813
167	0x3e122452	0.14271668
168	0xbcb1ff10	-0.021728069
169	0x3cda88d8	0.02667658
170	0xbdebee4f	-0.11520063
171	0xbde1ae10	-0.11019528
172	0xbd801696	-0.06254308
173	0x3d2a4d1a	0.041577436
174	0xbdfc2ebf	-0.123136036
175	0x3dfd2a13	0.12361541
176	0x3b30c14d	0.0026970685
177	0x3e464499	0.19362105
178	0x3c542de9	0.012950399
179	0xbc2ee810	-0.010675445
180	0xbe334820	-0.17507982
181	0x3d99ff56	0.075194046
182	0xbe04d95d	-0.12973543
183	0x3c9c682a	0.019092638
184	0x3e4ff4c6	0.20308217
185	0xbd5eadd5	-0.054364998
186	0xbddf40a1	-0.10900999
187	0x3df7e71b	0.12104627
188	0xbce0ee82	-0.02745748
189	0x3e437c35	0.1909035
190	0xbdbe5a6c	-0.0929459
191	0x3d06fa8d	0.032953788
192	0xbe589201	-0.21149446
193	0xbde577e4	-0.11204508
194	0xbdb4afbb	-0.088225804
195	0xbdd3c6de	-0.10340665
196	0xbe270d5f	-0.16313694
197	0x3e464c2f	0.19364999
198	0xbdced94b	-0.10100039
199	0xbe2db91e	-0.16965148
200	0x3e1e33ad	0.154494
201	0xbdbbe018	-0.09173602
202	0x3d584c1e	0.052806966
203	0xbd9ee69d	-0.0775883
204	0x3d720a50	0.059091866
205	0xbe2a175f	-0.16610478
206	0xbcd223ed	-0.025651896
207	0xbcb5bc0a	-0.02218439
208	0xbe5171a2	-0.20453504
209	0x3dcc7a6e	0.09984289
210	0x3c9ef4f4	0.019403912
211	0xbdf36ffa	-0.11886592
212	0xbe4616d7	-0.1934465
213	0x3e42e3e3	0.19032244
214	0xbe53bd30	-0.20677638
215	0xbd3f8551	-0.046758
216	0x3e447c89	0.19188131
217	0x3d18b67c	0.037283406
218	0x3d28a996	0.041177355
219	0xbe38ac43	-0.18034463
220	0x3e16a1ee	0.14710209
221	0xbd06a167	-0.03286877
222	0x3e5408cf	0.20706485
223	0xbd732726	-0.059363507
224	0x3db75a99	0.08952827
225	0x3e424a8b	0.18973748
226	0x3e03dd76	0.1287745
227	0x3e3ee680	0.18642616
228	0xbe1a5bd4	-0.15074092
229	0xbe1ecf00	-0.15508652
230	0xbe50a030	-0.20373607
231	0x3dec9bcb	0.11553153
232	0xbd098aa6	-0.03357949
233	0x3cfe8d01	0.031073095
234	0x3d2ff8ba	0.042961814
235	0xbbf3ab71	-0.007436209
236	0x3dd193d0	0.10233271
237	0x3e52f1be	0.2060003
238	0x3e532be7	0.20622216
239	0xbc88fc65	-0.016721914
240	0x3de3a69e	0.11115764
241	0xbe064856	-0.13113531
242	0x3dd3b845	0.10337881
243	0x3df9a0f1	0.121889
244	0xbe332dd9	-0.17497958
245	0x3d9ee927	0.07759314
246	0x3cd1bc81	0.025602581
247	0x3e2d6233	0.16931991
248	0xbc8bfcdd	-0.017088348
249	0xbc93cab9	-0.018041002
250	0x3e2fd5cf	0.17171405
251	0xbcac1889	-0.021007793
252	0x3e4dce00	0.20098114
253	0xbd9c9113	-0.07644858
254	0xbd4b7e44	-0.049680963
255	0x3e21f531	0.1581619

arith.constant3 f4 [512]
0	0x3a447d79	0.00074955035
1	0xb9ab95df	-0.00032727324
2	0x3bd7d763	0.0065869554
3	0x3bb11f12	0.005405315
4	0xbb816220	-0.003948465
5	0x3bc30e57	0.005952637
6	0x3b82890e	0.0039836233
7	0xbbd830e3	-0.0065976246
8	0xba5048f9	-0.0007945444
9	0x3b88a645	0.0041702115
10	0xb97d1851	-0.00024137019
11	0x3b570c30	0.003281366
12	0xbb61b8e8	-0.0034442488
13	0xb9e31d0c	-0.00043318456
14	0x3b619100	0.0034418702
15	0xbb2dbd38	-0.0026510488
16	0x3b80696b	0.003918817
17	0xbb6c8f68	-0.003609622
18	0xbbfc6578	-0.0077025257
19	0x3ba68161	0.005081341
20	0x3b8295ea	0.0039851563
21	0xbc01f2bd	-0.0079314085
22	0x3b2db766	0.002650702
23	0xbc015eee	-0.007896168
24	0xbc0bf0c5	-0.008541291
25	0xba7c4c20	-0.00096243806
26	0x39ee9ca8	0.00045511615
27	0x3b38b937	0.0028186569
28	0x3b672790	0.0035271384
29	0x3ba485aa	0.005020817
30	0x3be6f6a4	0.007048445
31	0xbbc7f3a7	-0.0061020437
32	0xbaf3dab5	-0.0018604608
33	0xb954cc62	-0.00020294034
34	0xbbae49d6	-0.0053188605
35	0x3b6ccc9c	0.00361327
36	0x3a8f04f5	0.0010911511
37	0x3a4d8c06	0.00078409945
38	0xbc23e443	-0.010003152
39	0xbba64cff	-0.0050750966
40	0xbbc78087	-0.0060883197
41	0x3bec76bb	0.007216302
42	0xbaffd7c1	-0.0019519256
43	0x3b003d2e	0.0019567716
44	0xbb8da56e	-0.0043226993
45	0xba82b917	-0.0009973374
46	0x3bbf800f	0.005844123
47	0xbb0b434a	-0.0021249824
48	0x3af332ed	0.0018554606
49	0x3bc13d5f	0.0058972086
50	0x3bae0a22	0.0053112665
51	0xbbdaa92b	-0.0066729984
52	0xbbff8a2c	-0.007798454
53	0x3ac9fdcb	0.0015410719
54	0x3ba1595c	0.0049239825
55	0xbbfa42b1	-0.0076373448
56	0xbb5de432	-0.0033857939
57	0x3bbe45c1	0.005806655
58	0xbbc268a4	-0.0059328843
59	0x3b8ff524	0.0043932367
60	0x3ba0c0b8	0.0049057864
61	0xbc7ada89	-0.015310892
62	0x3a7664d2	0.00093991787
63	0xba6d85b7	-0.00090607576
64	0xbb4ae203	-0.0030957467
65	0xbbd6bb4b	-0.006553089
66	0xbbd7d077	-0.0065861302
67	0x3a06b643	0.00051388534
68	0xbb2f3581	-0.0026734772
69	0x3baac0aa	0.0052109556
70	0x3b267e61	0.0025404918
71	0xbbd2e3cf	-0.0064358483
72	0xbb828399	-0.003982973
73	0xbacea537	-0.0015765791
74	0x3b100f3a	0.0021981732
75	0xbaec7fae	-0.0018043423
76	0x3bd916ad	0.0066250176
77	0xbbcde236	-0.00628307
78	0xbb0b2f6d	-0.0021237985
79	0x3ba45ec4	0.0050161798
80	0x3a44c82f	0.00075066363
81	0x3b7e4b09	0.0038802049
82	0x3b5959b0	0.003316503
83	0xbae10f07	-0.0017170616
84	0x3b0db527	0.0021622868
85	0xbacf5038	-0.0015816754
86	0x3bd3fd3a	0.006469396
87	0xb9197c77	-0.00014637584
88	0x3bc318cc	0.0059538838
89	0xbb9f87ea	-0.004868497
90	0xbb80501f	-0.003915801
91	0x3a08a000	0.000521183
92	0x3bb26e6c	0.005445292
93	0x3be5287e	0.0069933524
94	0xbad7b998	-0.001645851
95	0x3b2e654b	0.0026610668
96	0x3a77185c	0.0009425932
97	0x3b9ed98a	0.00484771
98	0xbb77c66b	-0.0037807475
99	0xbb57829d	-0.0032884248
100	0x3b323982	0.0027194922
101	0x3ad62ab7	0.0016339634
102	0x39de89ae	0.0004244572
103	0x3baea1bb	0.0053293384
104	0x3b4cc8db	0.003124765
105	0x3b779a6c	0.0037781252
106	0x3bc49186	0.005998793
107	0x3b9ec42b	0.0048451624
108	0x3bf5b373	0.0074981987
109	0x3ae296e4	0.00172874
110	0xbb5509f1	-0.0032507146
111	0xbbba8b04	-0.0056928415
112	0xbb5eacc2	-0.0033977483
113	0x3ab321d0	0.0013666693
114	0x3a44a0c0	0.000750076
115	0xbbcf8312	-0.0063327635
116	0xbb327442	-0.002722994
117	0x3b99f30c	0.004698163
118	0x3c14ac7e	0.0090743285
119	0xbbe87d4e	-0.0070950156
120	0x3b794aff	0.0038039086
121	0x3b8f808e	0.0043793386
122	0x3bb3b867	0.005484629
123	0xbb315ab8	-0.002706213
124	0x3b5ec179	0.003398983
125	0x3b586bb1	0.0033023173
126	0xbb2a130a	-0.002595129
127	0xbbae4444	-0.0053181965
128	0xbbcaa92e	-0.0061847186
129	0x3b5514ec	0.003251369
130	0x3958f464	0.00020690408
131	0x3b7aa6d7	0.0038246417
132	0xbb0f10f6	-0.0021830178
133	0x3b95b407	0.00456858
134	0xbab5a5bd	-0.0013858598
135	0xbb926c4e	-0.0044684773
136	0xba9fe8d1	-0.0012200122
137	0x3ba30b88	0.00497574
138	0xbb9f733a	-0.004866031
139	0xbb6acc7b	-0.0035827446
140	0x3a2ce8e1	0.0006595981
141	0x384ede1b	4.932108e-05
142	0x3be35f4c	0.0069388505
143	0xbab0e89f	-0.0013497061
144	0xbbc5053e	-0.006012588
145	0x3bb1e583	0.0054289713
146	0xbb725ef1	-0.003698286
147	0xbb93e4b9	-0.00451335
148	0xbb177705	-0.0023111713
149	0xbba03a2d	-0.0048897476
150	0x3b8df001	0.004331589
151	0x3ac0823c	0.001468725
152	0xbb0419ae	-0.0020156908
153	0xbac670e4	-0.0015139845
154	0x3bdcadaa	0.0067345696
155	0x3ab1c810	0.0013563652
156	0x3afa8b5b	0.0019115017
157	0xba74cbcf	-0.0009338231
158	0x3bf7edac	0.0075661745
159	0x38192478	3.6512007e-05
160	0xbab7d133	-0.0014024138
161	0xbb04d2f0	-0.002026733
162	0xbb85f685	-0.0040882253
163	0xbb861c41	-0.0040927236
164	0x3aa2aab0	0.0012410488
165	0xbaa848e2	-0.0012839104
166	0x3a939480	0.0011259466
167	0x3b5e3cf3	0.003391084
168	0x3aff468b	0.001947598
169	0xbb8155cb	-0.003946995
170	0x3aff47d0	0.0019476358
171	0x3b035df8	0.0020045023
172	0x3bb89ba7	0.0056337896
173	0xbb11c550	-0.0022242852
174	0xbb2636fd	-0.0025362365
175	0x3a9b1b84	0.0011833762
176	0xbba32788	-0.0049790777
177	0x3a793534	0.0009506524
178	0x3b9a8195	0.0047151544
179	0x3b0da66c	0.0021614088
180	0x3bfd5fe7	0.0077323797
181	0x3a9e2072	0.0012064113
182	0x3a818407	0.0009881266
183	0x3ab195fd	0.0013548728
184	0xba42cd78	-0.000743113
185	0xbba48697	-0.005020927
186	0x3ad6dd96	0.0016392942
187	0x3b1169a5	0.0022188213
188	0x3c31d470	0.010853872
189	0xba6f4282	-0.0009127037
190	0x3b171de1	0.002305858
191	0xbb320da3	-0.0027168773
192	0x3a3ec0ac	0.0007276635
193	0xbb664f3a	-0.0035142438
194	0x3c2111de	0.00983092
195	0xbbd02014	-0.0063514803
196	0x3a1787c7	0.0005780425
197	0xba2e77cf	-0.0006655426
198	0xba524b9f	-0.00080221327
199	0x3bbc1a3e	0.005740433
200	0xbbc7a672	-0.00609284
201	0x3b2ab644	0.002604858
202	0x3b19289a	0.0023370148
203	0x3bb9b33f	0.0056671198
204	0x3bc2df5c	0.0059470367
205	0xba799c3d	-0.00095218775
206	0x39660292	0.00021935467
207	0x396674c5	0.0002197801
208	0xbbe15f0b	-0.006877785
209	0x3b4a9130	0.0030909292
210	0xbb7d6eca	-0.0038670772
211	0x3a257f12	0.00063131854
212	0x386fea64	5.7200334e-05
213	0xb9a3d66e	-0.00031249545
214	0xbb96e36d	-0.004604748
215	0x3b80ad87	0.003926936
216	0xbac4efbd	-0.0015025061
217	0xba93152e	-0.0011221522
218	0x3a84eecb	0.0010141967
219	0x3b08b50c	0.0020859865
220	0x3bff5245	0.0077917897
221	0xbbaef2a6	-0.0053389845
222	0x3b0b0465	0.0021212336
223	0x3bb9fccd	0.005675888
224	0x3aa53f33	0.0012607336
225	0xbb01f41d	-0.001982934
226	0xbb4fc2cd	-0.0031701804
227	0xba89de04	-0.0010518436
228	0xbb927b83	-0.00447029
229	0x3b8cd814	0.0042982195
230	0x3ab3c505	0.0013715333
231	0x3b75f8b2	0.0037532267
232	0xbc0b886e	-0.008516414
233	0xbb0e5e69	-0.0021723753
234	0xbaf1a785	-0.0018436766
235	0x3aa09202	0.0012250545
236	0xb9fecb1f	-0.00048597992
237	0x3bdd89f1	0.0067608287
238	0xbbdf1319	-0.0068076965
239	0xbbe4355f	-0.00696437
240	0x390f2fb1	0.00013655309
241	0x395b1131	0.00020891872
242	0x3a977dac	0.0011557839
243	0x3b8a346c	0.004217675
244	0xbba648fb	-0.005074618
245	0xbba7445a	-0.0051045837
246	0xbbcb1e94	-0.0061987136
247	0xbb893b22	-0.0041879574
248	0x39eb9f9c	0.0004494161
249	0xb8c61cf3	-9.446768e-05
250	0x3be78b4a	0.007066165
251	0x3b91d196	0.0044500334
252	0xbb8070c2	-0.003919692
253	0xbbf2ea22	-0.0074131647
254	0x3b8c4efb	0.004281876
255	0x3a369a3a	0.00069657306

arith.constant4 f4 [256]
0	0xbb28c4c9	-0.0025752059
1	0xbc88c506	-0.01669551
2	0xbc89dd22	-0.016829077
3	0xbb0b0675	-0.0021213565
4	0xbc9c74a2	-0.019098584
5	0xbd0f78e6	-0.035027407
6	0xbb23e46d	-0.0025007979
7	0xbc37d64e	-0.011220528
8	0xbaf80ba9	-0.0018924373
9	0xbb170e7c	-0.0023049405
10	0x3a6ecbf9	0.0009109374
11	0x3cdcacab	0.026937803
12	0x3c9df95a	0.01928394
13	0xbc0cfc1e	-0.008605031
14	0xbc171573	-0.0092214225
15	0x3c5c0e32	0.013431119
16	0x3b2ac58d	0.002605769
17	0x3a95d419	0.0011431008
18	0x3c3b84bf	0.011445223
19	0xbc744b92	-0.0149105955
20	0x3c582413	0.0131921945
21	0xbbd4b7e7	-0.0064916494
22	0x3cabaed9	0.020957397
23	0xbb66279d	-0.0035118826
24	0x3c1aaf54	0.009441216
25	0xbcaac364	-0.020845123
26	0x3c50d12b	0.012745182
27	0x3ca0dfa8	0.019637898
28	0x3a880122	0.0010376314
29	0xbc28b7be	-0.010297714
30	0xb91dd588	-0.00015052233
31	0xbc9e06d5	-0.019290367
32	0x3b9124f9	0.0044294563
33	0xbbf6bce3	-0.0075298413
34	0xbc4ce2c2	-0.012505235
35	0x3c2b8a37	0.010469965
36	0x3c2842d2	0.010269837
37	0xbbf9eaec	-0.007626882
38	0xbc177b9a	-0.0092457775
39	0xbcbb7ec4	-0.022887595
40	0x3c046f36	0.008083155
41	0x3c4698ec	0.01212142
42	0xbcc2e3c9	-0.023790257
43	0xb7ce2bea	-2.4577563e-05
44	0xbbb95ef3	-0.005657071
45	0x3b4ac86f	0.0030942222
46	0x3c889eb7	0.016677244
47	0x3b3d3cfb	0.0028875459
48	0x3bea177f	0.0071439142
49	0xbbb50a48	-0.0055249073
50	0x3be02326	0.0068401275
51	0xbc251909	-0.01007677
52	0x3d01a0f4	0.031647637
53	0xba8bbd27	-0.001066123
54	0xbc8dbf54	-0.017303146
55	0xbc344a9f	-0.011004119
56	0xbaa4a705	-0.0012561983
57	0x3b8e1b5f	0.004336759
58	0xbba1e933	-0.0049411296
59	0xbc783aa7	-0.015150703
60	0x3bffb1ac	0.0078031626
61	0xba1c6f4b	-0.00059675117
62	0x3a20ffcc	0.00061416323
63	0xbc23d3d1	-0.009999231
64	0xbb86b98d	-0.004111475
65	0xbc9673fd	-0.018365854
66	0xbb5caa88	-0.003367098
67	0xbbefbec2	-0.0073164413
68	0xba52e498	-0.00080449274
69	0xbc45d3a4	-0.012074385
70	0x3bab6f4e	0.0052317744
71	0x3c8ce662	0.017199699
72	0xbc6ee884	-0.014581803
73	0x3938816b	0.0001759582
74	0x3c346679	0.0110107595
75	0xbbc5bc4d	-0.00603441
76	0xbc0387be	-0.008027969
77	0x3c048107	0.008087403
78	0x3b841ba3	0.004031615
79	0xbc13146e	-0.008977039
80	0x3c77993a	0.015112216
81	0xbb91d0fe	-0.0044499626
82	0x3ae272da	0.001727666
83	0x3c53c339	0.012924963
84	0x3cf8b782	0.03036094
85	0xbc4d3ce1	-0.012526722
86	0xbbecde9d	-0.007228686
87	0x3a722720	0.00092373975
88	0x3c38076f	0.011232241
89	0xbb36f051	-0.0027914236
90	0x3c064b16	0.008196613
91	0x3b0ad63a	0.0021184818
92	0xbcb0058e	-0.021487024
93	0xbc289648	-0.010289736
94	0xbbd5579c	-0.006510688
95	0x3aa5a682	0.0012638124
96	0xbc43a4bf	-0.011941134
97	0x3bcbf504	0.0062242765
98	0xbc1625f6	-0.009164324
99	0xbbcae777	-0.0061921435
100	0x3c38fbd5	0.01129051
101	0xbc80ba91	-0.015713962
102	0x3ca45c7c	0.020063631
103	0xbc84d3a6	-0.016214203
104	0x3c8fe2bb	0.017564168
105	0x3bcb0e31	0.00619676
106	0xbc33cfaf	-0.010974809
107	0xbc85b43d	-0.016321296
108	0xbc01cd18	-0.007922433
109	0x3b318888	0.0027089436
110	0x3c6c647b	0.014428253
111	0x3c95a76c	0.01826831
112	0x3c9a8290	0.018861085
113	0x3c525c8b	0.012839447
114	0xbc2d01a3	-0.010559472
115	0x3aa9e6f5	0.0012962507
116	0xbb2a8112	-0.0026016873
117	0x3c99352b	0.01870211
118	0xbc055695	-0.008138319
119	0x3cd5b388	0.026086584
120	0xbc91736e	-0.017755236
121	0xbc2d5d98	-0.0105813965
122	0x3bae2a17	0.005315076
123	0xbbf6cad7	-0.0075315046
124	0x3a86ee85	0.0010294473
125	0x3cd11994	0.025524892
126	0x3c1719c3	0.009222451
127	0x3b69af13	0.003565733
128	0x3cbc6cd9	0.023001121
129	0x3c170856	0.009218296
130	0xbbbe1a42	-0.00580147
131	0x3d119f8f	0.035552558
132	0x3c3c6fdf	0.0115012815
133	0xbc3e3843	-0.0116100935
134	0x3b77901c	0.0037775105
135	0x3c79fd54	0.015258152
136	0x3c473395	0.012158294
137	0x3c82ea76	0.01598094
138	0xbc865bde	-0.016401228
139	0x3b7f2ad4	0.003893544
140	0x3c41ee48	0.011836596
141	0xbbe2a51b	-0.0069166548
142	0x3c553e82	0.013015391
143	0xbc1fcef1	-0.0097539285
144	0xbc3fbd5f	-0.011702864
145	0xbc348d8c	-0.0110200755
146	0x3c7a937a	0.01529395
147	0x3bc5d451	0.006037273
148	0xba14d6e6	-0.00056777743
149	0x3c932b00	0.01796484
150	0x3bafb68f	0.005362339
151	0xbb672fd8	-0.003527632
152	0x3b56f74a	0.0032801204
153	0x3cc7d163	0.024391836
154	0x3b08997c	0.0020843437
155	0x3cb339eb	0.021878203
156	0xbcc60ed5	-0.024176994
157	0xbc0501b3	-0.008118081
158	0x3bc2622f	0.0059321146
159	0x3b232b3c	0.0024897596
160	0x3bfc9d5f	0.00770919
161	0xbc814dc5	-0.015784154
162	0xbc3dddd3	-0.011588532
163	0x3bfe1da8	0.007755
164	0x3b9e9870	0.0048399493
165	0xbc2e51a0	-0.010639578
166	0xbc36bd8a	-0.011153588
167	0x3bee53d8	0.0072731785
168	0x3c26469f	0.010148673
169	0x3b8c300d	0.004278189
170	0xbb72dc59	-0.0037057607
171	0x3c470c99	0.012149
172	0x3b43842c	0.002983342
173	0x3b132012	0.0022449535
174	0xbbb3c4f7	-0.0054861265
175	0x3c7bb635	0.015363266
176	0x3cb77d4a	0.02239861
177	0xbc4aea3f	-0.01238495
178	0xbc8c8724	-0.017154284
179	0xbc7af06a	-0.015316108
180	0x3c0b0dfa	0.008487219
181	0x3ba8d679	0.0051525203
182	0xbbb3ecd8	-0.0054908805
183	0x3b494b29	0.0030714965
184	0x3c5212d2	0.01282187
185	0xbcb3cdb0	-0.021948665
186	0x3c0bd4ce	0.008534623
187	0xbcd27c0e	-0.02569392
188	0x3ad63079	0.001634135
189	0x3bd71296	0.006563495
190	0x3cb18b57	0.021672888
191	0x3baf046d	0.0053411038
192	0x3b57d232	0.0032931683
193	0x3bbe9819	0.0058164713
194	0x3bbef95f	0.005828067
195	0x3c0e1c7b	0.008673782
196	0x3bc98040	0.006149322
197	0xbbfe8d73	-0.007768327
198	0xbcd99bbd	-0.02656352
199	0xbba003ad	-0.0048832507
200	0xbbab9e61	-0.005237386
201	0x3c2681e8	0.010162808
202	0x3bf28519	0.0074011204
203	0x3c764065	0.015030001
204	0x3c019cce	0.00791092
205	0xbcc3bc49	-0.023893492
206	0x3cd8cdd2	0.02646533
207	0x3c013fbc	0.007888731
208	0xbba82603	-0.0051314845
209	0x3bc09d86	0.0058781533
210	0xbc4df945	-0.0125716375
211	0x3c03a1b1	0.008034156
212	0x3c51de2a	0.012809316
213	0xbb1c1b25	-0.002381989
214	0x3acc5730	0.0015589949
215	0x3ca8bbd9	0.020597385
216	0x3cb1c971	0.0217025
217	0xbcdef85b	-0.027218034
218	0x3c3bbb5d	0.011458245
219	0xba60bad4	-0.00085727614
220	0xbc13d34b	-0.009022544
221	0xbc054e24	-0.008136306
222	0x3bfe07a7	0.007752377
223	0x3c29a2e7	0.01035378
224	0x3c2074db	0.0097934855
225	0x3c22ac5b	0.009928788
226	0x3b2619d8	0.0025344994
227	0x3ce1c906	0.027561676
228	0x3c7d5075	0.015461077
229	0xba15cc4f	-0.0005714343
230	0xbc0bcf69	-0.008533337
231	0x3a2afcdc	0.00065226643
232	0xbbaa2b01	-0.0051931147
233	0x3bf2121a	0.007387412
234	0x3b6985d0	0.0035632737
235	0xbab1ef9b	-0.0013575436
236	0xba542461	-0.0008092579
237	0x37b4ec22	2.156763e-05
238	0x3b26dee7	0.002546245
239	0x3ac7ceb4	0.0015244097
240	0x3ce8c67e	0.028414961
241	0x3c477fff	0.012176513
242	0x3be512d8	0.0069907717
243	0x3b8ce6ee	0.00429999
244	0xba32f446	-0.0006826561
245	0x3c197659	0.009366595
246	0xbc625ee1	-0.013816566
247	0x3bb9e7d6	0.005673389
248	0xbccb759f	-0.02483636
249	0x3bc1d37a	0.0059151025
250	0xbb99ac1c	-0.0046897065
251	0x3b750897	0.0037389153
252	0x3becc84f	0.007226027
253	0xb96d7e2e	-0.00022649087
254	0xba8ec669	-0.0010892871
255	0xbbb3c47c	-0.0054860692

arith.constant5 f4 [128]
0	0xbd16a8d4	-0.0367821
1	0x3c445389	0.011982807
2	0xbcbff269	-0.02343102
3	0x3b6643ba	0.0035135583
4	0xbc47504f	-0.012165143
5	0x3cc0a049	0.02351393
6	0x3c386f03	0.011256936
7	0xbcae1d0c	-0.021254085
8	0x3c952a71	0.018208714
9	0xbc9c88fd	-0.01910829
10	0x3c55465b	0.013017262
11	0x3c0308f4	0.00799774
12	0xbcfbf995	-0.030758658
13	0x3a8290b0	0.0009961333
14	0xbc5047f2	-0.012712466
15	0xbbd23972	-0.0064155394
16	0x3c58a107	0.013221986
17	0xbcb7ae37	-0.02242194
18	0x39f47b5b	0.00046631214
19	0x3c4e0a64	0.0125757195
20	0xbc1e515f	-0.009662955
21	0x3cd1a0a4	0.025589295
22	0x3cbed6b2	0.023295734
23	0x3ab1dd55	0.001356999
24	0x3b87d997	0.004145812
25	0xb96eb314	-0.0002276416
26	0x3bd68fae	0.0065478897
27	0xbc84367b	-0.01613926
28	0xbcdb4a94	-0.02676896
29	0xbbfe7cc8	-0.00776634
30	0xba0dbf8b	-0.0005407265
31	0x3ca22904	0.019794948
32	0xb8cdd994	-9.815689e-05
33	0x3cbac8c0	0.022800803
34	0xbbc816a2	-0.0061062137
35	0x3ab90414	0.0014115595
36	0xbd3233ec	-0.043506548
37	0xbb936a4f	-0.004498757
38	0xbc233788	-0.00996197
39	0x3c019700	0.007909536
40	0xbc5d7b5e	-0.013518183
41	0xbcb434ce	-0.021997835
42	0xbb60e069	-0.0034313446
43	0x3c74cad6	0.014940938
44	0x3d3fe0ba	0.046845175
45	0x3c8263b3	0.01591668
46	0x3c0180a9	0.00790421
47	0x3be6a8f9	0.007039186
48	0x3b606182	0.0034237807
49	0xbbc9ff41	-0.006164462
50	0x3d0735da	0.03301034
51	0xba9d09bc	-0.001198105
52	0x3b84600e	0.004039771
53	0x3bcad4ba	0.0061899098
54	0xbb725802	-0.0036978726
55	0x3b10edb9	0.002211435
56	0x3ba82801	0.005131722
57	0x3b8c3514	0.0042787883
58	0xbcde7245	-0.027154097
59	0x3b868cbc	0.0041061323
60	0x3c9f5f54	0.019454636
61	0xbb1603e4	-0.0022890503
62	0xbc8762cf	-0.016526608
63	0xbcb4a932	-0.022053335
64	0xbbebb70c	-0.0071934517
65	0x3b956f4a	0.004560386
66	0x3c3cf19b	0.011532213
67	0xbc847512	-0.016169105
68	0x3c960744	0.018314011
69	0x3adbc7ed	0.0016767957
70	0x3b378924	0.0028005326
71	0xbb398cb3	-0.0028312623
72	0xbc90c0fd	-0.017670149
73	0x3ceaea40	0.028676152
74	0x3bb97d5f	0.0056606974
75	0xbbbfc23f	-0.0058520134
76	0xbc582b43	-0.013193908
77	0xbd01907b	-0.031631928
78	0x3cdbc9c3	0.026829606
79	0x3a91b6ca	0.0011117097
80	0xbbe5689c	-0.007000996
81	0x3ad48c5e	0.0016216149
82	0xbd3db271	-0.046312753
83	0x3c14f7d9	0.009092295
84	0xbc038d8d	-0.008029354
85	0xbcb8b0d4	-0.022545256
86	0xbc33971c	-0.01096132
87	0xbcc88b15	-0.024480382
88	0xbcc060c1	-0.023483636
89	0x3c34b34f	0.011029079
90	0x3c943d47	0.018095626
91	0xbd4af49f	-0.049549695
92	0xbbba5c5c	-0.0056872796
93	0x3cbc4485	0.022981891
94	0x3b9ff012	0.0048809135
95	0x3caf96f9	0.021434294
96	0x3b4b0b08	0.0030981917
97	0xbbe83db6	-0.0070874346
98	0xbd2bdcfa	-0.041958787
99	0x3a031044	0.0004999677
100	0x3cbd546f	0.02311155
101	0xbc5e626d	-0.013573271
102	0xbad89b67	-0.0016525806
103	0x3b5b6c70	0.0033481382
104	0x3c3bbea7	0.011459029
105	0x3c976c55	0.018484274
106	0x3bb39e15	0.0054814913
107	0x3cdd3586	0.027003061
108	0x3be76d2b	0.0070625744
109	0x3bbd500d	0.005777365
110	0xbb9719c9	-0.004611228
111	0x3b7f5d2b	0.0038965445
112	0xbc74f4d7	-0.0149509525
113	0xbc1cf096	-0.0095788445
114	0xbb136524	-0.0022490704
115	0xbcb03ced	-0.021513427
116	0x3c4399e9	0.0119385505
117	0xbc32a3fb	-0.010903354
118	0xbcabd89b	-0.020977309
119	0x3c865d15	0.016401807
120	0x3c0315f0	0.008000836
121	0xbb9a97b3	-0.004717791
122	0x3cf9adbe	0.030478355
123	0xbcdf0459	-0.027223753
124	0xbcad796d	-0.021176064
125	0xbc600687	-0.013673431
126	0x3c9f3a31	0.019436928
127	0xbb3818ce	-0.0028090957

tfl.pseudo_qconst i1 [128, 256]
0	0x34	52
1	0x64	100
2	0x9c	-100
3	0x18	24
4	0xd4	-44
5	0x5d	93
6	0x87	-121
7	0x17	23
8	0xed	-19
9	0xac	-84
10	0x3c	60
11	0x6f	111
12	0x26	38
13	0xda	-38
14	0x39	57
15	0x93	-109
16	0x69	105
17	0x44	68
18	0x5e	94
19	0x70	112
20	0x3c	60
21	0x76	118
22	0xe7	-25
23	0xab	-85
24	0x3b	59
25	0x1b	27
26	0x65	101
27	0xa7	-89
28	0x27	39
29	0x94	-108
30	0x5e	94
31	0x83	-125
32	0xaa	-86
33	0x8d	-115
34	0x8b	-117
35	0x8d	-115
36	0x3a	58
37	0x0b	11
38	0xe5	-27
39	0xf8	-8
40	0xcd	-51
41	0x55	85
42	0x6f	111
43	0x36	54
44	0xfc	-4
45	0x7f	127
46	0x4c	76
47	0xce	-50
48	0xf1	-15
49	0xca	-54
50	0x26	38
51	0x6f	111
52	0x6d	109
53	0x04	4
54	0x9a	-102
55	0x2d	45
56	0x51	81
57	0xfe	-2
58	0xcd	-51
59	0xab	-85
60	0x64	100
61	0x7a	122
62	0x51	81
63	0xbb	-69
64	0x52	82
65	0x8d	-115
66	0x02	2
67	0x30	48
68	0x62	98
69	0x59	89
70	0xcd	-51
71	0xbf	-65
72	0xe2	-30
73	0x4f	79
74	0xed	-19
75	0xec	-20
76	0xad	-83
77	0x9f	-97
78	0x32	50
79	0xa9	-87
80	0xdb	-37
81	0xb2	-78
82	0xd6	-42
83	0x27	39
84	0x4e	78
85	0xe3	-29
86	0xe0	-32
87	0x28	40
88	0xe7	-25
89	0x75	117
90	0x31	49
91	0xec	-20
92	0x4a	74
93	0xf2	-14
94	0x15	21
95	0x85	-123
96	0x18	24
97	0x40	64
98	0x49	73
99	0x09	9
100	0x75	117
101	0xf4	-12
102	0x7a	122
103	0xfb	-5
104	0xa2	-94
105	0xed	-19
106	0xec	-20
107	0x4d	77
108	0xf2	-14
109	0x0e	14
110	0xef	-17
111	0x6c	108
112	0xc8	-56
113	0xbb	-69
114	0xb5	-75
115	0xe2	-30
116	0x08	8
117	0x25	37
118	0xf7	-9
119	0x23	35
120	0xc7	-57
121	0xcf	-49
122	0x71	113
123	0x18	24
124	0xa0	-96
125	0xe9	-23
126	0xc7	-57
127	0xb7	-73
128	0x4b	75
129	0xb7	-73
130	0xbd	-67
131	0x58	88
132	0x12	18
133	0x11	17
134	0x0b	11
135	0x5a	90
136	0xed	-19
137	0x51	81
138	0xef	-17
139	0xa0	-96
140	0x17	23
141	0x51	81
142	0x5a	90
143	0x08	8
144	0x51	81
145	0x9b	-101
146	0x92	-110
147	0x10	16
148	0xa7	-89
149	0xcd	-51
150	0x12	18
151	0x58	88
152	0x85	-123
153	0xb6	-74
154	0xa0	-96
155	0xfc	-4
156	0x67	103
157	0xb8	-72
158	0xfd	-3
159	0x1c	28
160	0x3c	60
161	0x04	4
162	0x7a	122
163	0xbb	-69
164	0xe0	-32
165	0x07	7
166	0xc5	-59
167	0x1d	29
168	0xd0	-48
169	0x1c	28
170	0x2b	43
171	0x1c	28
172	0xaf	-81
173	0xc7	-57
174	0x78	120
175	0x4c	76
176	0xaa	-86
177	0x20	32
178	0xd8	-40
179	0xc4	-60
180	0xac	-84
181	0xd4	-44
182	0x78	120
183	0x44	68
184	0xac	-84
185	0x28	40
186	0x4f	79
187	0x35	53
188	0x9a	-102
189	0x3e	62
190	0xb6	-74
191	0x5e	94
192	0x45	69
193	0xb2	-78
194	0x1a	26
195	0x20	32
196	0x3e	62
197	0x11	17
198	0x60	96
199	0x60	96
200	0x25	37
201	0x53	83
202	0x68	104
203	0x3a	58
204	0x4d	77
205	0x24	36
206	0x0e	14
207	0x0d	13
208	0x5e	94
209	0xfa	-6
210	0x35	53
211	0x9b	-101
212	0x92	-110
213	0x23	35
214	0x21	33
215	0xdb	-37
216	0x89	-119
217	0xaa	-86
218	0xca	-54
219	0x90	-112
220	0xa9	-87
221	0xba	-70
222	0x1b	27
223	0xd6	-42
224	0xc5	-59
225	0x6e	110
226	0x27	39
227	0x9c	-100
228	0x89	-119
229	0x1e	30
230	0x6d	109
231	0xba	-70
232	0xeb	-21
233	0xe8	-24
234	0x59	89
235	0x4d	77
236	0x7f	127
237	0xd7	-41
238	0x03	3
239	0x4c	76
240	0xd8	-40
241	0xad	-83
242	0x61	97
243	0x6e	110
244	0x63	99
245	0x3b	59
246	0x59	89
247	0xf6	-10
248	0xd9	-39
249	0xf6	-10
250	0x6b	107
251	0x98	-104
252	0x3b	59
253	0xa4	-92
254	0x2b	43
255	0x22	34

tfl.pseudo_qconst1 i1 [256, 512]
0	0xf6	-10
1	0x77	119
2	0x28	40
3	0x64	100
4	0x06	6
5	0x41	65
6	0xa9	-87
7	0xb0	-80
8	0xe7	-25
9	0x5f	95
10	0x41	65
11	0x01	1
12	0xec	-20
13	0x99	-103
14	0x9c	-100
15	0x57	87
16	0xae	-82
17	0x31	49
18	0x9f	-97
19	0x07	7
20	0x55	85
21	0xf9	-7
22	0x7e	126
23	0x9d	-99
24	0x70	112
25	0xed	-19
26	0x17	23
27	0xd5	-43
28	0xa1	-95
29	0xf9	-7
30	0xba	-70
31	0x23	35
32	0x2e	46
33	0x03	3
34	0x4b	75
35	0xe8	-24
36	0xe6	-26
37	0xd5	-43
38	0xa7	-89
39	0x62	98
40	0xfe	-2
41	0x16	22
42	0x5a	90
43	0xba	-70
44	0xe1	-31
45	0xc2	-62
46	0x4e	78
47	0x58	88
48	0x56	86
49	0xf8	-8
50	0xbe	-66
51	0x1d	29
52	0x1c	28
53	0x6a	106
54	0x25	37
55	0x3b	59
56	0x98	-104
57	0xae	-82
58	0x1b	27
59	0x4d	77
60	0xa5	-91
61	0x2c	44
62	0x13	19
63	0xcc	-52
64	0x85	-123
65	0xc1	-63
66	0x30	48
67	0x98	-104
68	0x63	99
69	0xac	-84
70	0x5d	93
71	0xc3	-61
72	0xd7	-41
73	0xac	-84
74	0x8f	-113
75	0x50	80
76	0x24	36
77	0x21	33
78	0x2f	47
79	0xc5	-59
80	0xc3	-61
81	0xb1	-79
82	0x16	22
83	0x15	21
84	0x90	-112
85	0xe7	-25
86	0xa0	-96
87	0x77	119
88	0x42	66
89	0x14	20
90	0x15	21
91	0x5c	92
92	0x1f	31
93	0x01	1
94	0xf2	-14
95	0xb3	-77
96	0x51	81
97	0xfc	-4
98	0x05	5
99	0x23	35
100	0x40	64
101	0x57	87
102	0x7f	127
103	0xad	-83
104	0x25	37
105	0x05	5
106	0x0b	11
107	0xd6	-42
108	0x25	37
109	0x70	112
110	0x4d	77
111	0x10	16
112	0xe1	-31
113	0xc9	-55
114	0x37	55
115	0xd7	-41
116	0x4c	76
117	0x49	73
118	0x3d	61
119	0x86	-122
120	0x40	64
121	0x0d	13
122	0xbd	-67
123	0xa7	-89
124	0xd8	-40
125	0xef	-17
126	0x30	48
127	0x59	89
128	0x78	120
129	0x4a	74
130	0xe4	-28
131	0xed	-19
132	0x83	-125
133	0x6f	111
134	0x90	-112
135	0x92	-110
136	0x41	65
137	0x01	1
138	0xfa	-6
139	0x4c	76
140	0xc3	-61
141	0x2c	44
142	0x54	84
143	0x4e	78
144	0xc8	-56
145	0x04	4
146	0xcf	-49
147	0x72	114
148	0x7c	124
149	0xe2	-30
150	0x74	116
151	0x04	4
152	0x54	84
153	0x43	67
154	0xfd	-3
155	0x34	52
156	0xe0	-32
157	0x4b	75
158	0x91	-111
159	0x1e	30
160	0xa3	-93
161	0x0d	13
162	0x26	38
163	0x12	18
164	0x63	99
165	0x9d	-99
166	0x47	71
167	0xd1	-47
168	0x01	1
169	0x5b	91
170	0xa6	-90
171	0x0c	12
172	0x30	48
173	0xf8	-8
174	0x7b	123
175	0xe9	-23
176	0x55	85
177	0x62	98
178	0xb9	-71
179	0x6c	108
180	0x46	70
181	0x69	105
182	0x08	8
183	0x94	-108
184	0xb4	-76
185	0x85	-123
186	0x19	25
187	0x3a	58
188	0x29	41
189	0x6f	111
190	0x33	51
191	0xa5	-91
192	0x3e	62
193	0xc3	-61
194	0xf8	-8
195	0x77	119
196	0x72	114
197	0x28	40
198	0xea	-22
199	0x64	100
200	0x01	1
201	0x09	9
202	0x75	117
203	0xd2	-46
204	0x8c	-116
205	0xa1	-95
206	0x93	-109
207	0x33	51
208	0xf9	-7
209	0x6c	108
210	0x90	-112
211	0xaf	-81
212	0xfc	-4
213	0x36	54
214	0x4d	77
215	0x1c	28
216	0x7e	126
217	0x3e	62
218	0x00	0
219	0xf3	-13
220	0x42	66
221	0xe8	-24
222	0x93	-109
223	0x82	-126
224	0x3b	59
225	0x43	67
226	0xcb	-53
227	0xa6	-90
228	0xe7	-25
229	0x07	7
230	0x34	52
231	0xec	-20
232	0xc2	-62
233	0x93	-109
234	0x71	113
235	0x4b	75
236	0x28	40
237	0x9b	-101
238	0x39	57
239	0xdf	-33
240	0x84	-124
241	0xf1	-15
242	0xd9	-39
243	0xe2	-30
244	0x01	1
245	0x50	80
246	0x8f	-113
247	0x79	121
248	0x48	72
249	0xdb	-37
250	0x64	100
251	0x7f	127
252	0xa9	-87
253	0xe6	-26
254	0xff	-1
255	0xd2	-46

tfl.pseudo_qconst2 i1 [512, 512]
0	0xef	-17
1	0xdc	-36
2	0xa6	-90
3	0x2f	47
4	0x43	67
5	0x1c	28
6	0x6b	107
7	0xe1	-31
8	0x36	54
9	0x8a	-118
10	0x09	9
11	0xca	-54
12	0x48	72
13	0xed	-19
14	0x9c	-100
15	0x39	57
16	0x5b	91
17	0x49	73
18	0x0e	14
19	0x15	21
20	0x54	84
21	0x60	96
22	0xb5	-75
23	0x37	55
24	0x95	-107
25	0x08	8
26	0xf4	-12
27	0x84	-124
28	0x5d	93
29	0xfa	-6
30	0xd9	-39
31	0x01	1
32	0x1e	30
33	0x74	116
34	0x56	86
35	0xe9	-23
36	0xe6	-26
37	0x9b	-101
38	0x41	65
39	0x44	68
40	0xcb	-53
41	0x21	33
42	0xcd	-51
43	0x34	52
44	0x5d	93
45	0xd4	-44
46	0xc3	-61
47	0xe7	-25
48	0x30	48
49	0x1a	26
50	0x06	6
51	0x91	-111
52	0x95	-107
53	0x23	35
54	0x99	-103
55	0xb0	-80
56	0x65	101
57	0x29	41
58	0x5e	94
59	0xe1	-31
60	0x97	-105
61	0xe2	-30
62	0x49	73
63	0x00	0
64	0xdd	-35
65	0x16	22
66	0x73	115
67	0x99	-103
68	0x10	16
69	0x0d	13
70	0x55	85
71	0x06	6
72	0xf8	-8
73	0x19	25
74	0x18	24
75	0x61	97
76	0x84	-124
77	0x29	41
78	0xef	-17
79	0x2f	47
80	0xc9	-55
81	0x34	52
82	0xc7	-57
83	0xfb	-5
84	0xa4	-92
85	0x34	52
86	0xcc	-52
87	0x2c	44
88	0x2a	42
89	0x56	86
90	0x41	65
91	0x50	80
92	0x0b	11
93	0x71	113
94	0xe3	-29
95	0x72	114
96	0x04	4
97	0x5b	91
98	0x0e	14
99	0x62	98
100	0x92	-110
101	0x4f	79
102	0xc4	-60
103	0x53	83
104	0xbd	-67
105	0x89	-119
106	0x01	1
107	0x93	-109
108	0x9b	-101
109	0x44	68
110	0x1a	26
111	0x09	9
112	0x14	20
113	0xc2	-62
114	0x9e	-98
115	0x37	55
116	0xc2	-62
117	0x6f	111
118	0x12	18
119	0xe5	-27
120	0x03	3
121	0x62	98
122	0xc7	-57
123	0x96	-106
124	0xbd	-67
125	0x5c	92
126	0xff	-1
127	0xa7	-89
128	0xf1	-15
129	0x75	117
130	0x17	23
131	0x88	-120
132	0x47	71
133	0x07	7
134	0xfc	-4
135	0x59	89
136	0x97	-105
137	0x56	86
138	0x01	1
139	0x24	36
140	0xaf	-81
141	0x9a	-102
142	0xe6	-26
143	0xa0	-96
144	0x1a	26
145	0xfe	-2
146	0x39	57
147	0xc3	-61
148	0x75	117
149	0x67	103
150	0x78	120
151	0x8c	-116
152	0x13	19
153	0x0c	12
154	0x1d	29
155	0xca	-54
156	0x65	101
157	0xbd	-67
158	0x75	117
159	0xe5	-27
160	0x30	48
161	0x60	96
162	0x69	105
163	0x33	51
164	0xec	-20
165	0xd4	-44
166	0x94	-108
167	0xca	-54
168	0xeb	-21
169	0x2a	42
170	0xdc	-36
171	0x23	35
172	0x03	3
173	0x6f	111
174	0x1c	28
175	0x75	117
176	0x6f	111
177	0xbb	-69
178	0x98	-104
179	0xe0	-32
180	0x4a	74
181	0xa4	-92
182	0x36	54
183	0x40	64
184	0xc2	-62
185	0xa7	-89
186	0x2d	45
187	0x12	18
188	0xba	-70
189	0x1c	28
190	0x23	35
191	0xf5	-11
192	0x0a	10
193	0xab	-85
194	0xb6	-74
195	0x9a	-102
196	0x5b	91
197	0x47	71
198	0x55	85
199	0x8f	-113
200	0x1f	31
201	0x69	105
202	0x77	119
203	0x13	19
204	0x30	48
205	0x66	102
206	0x16	22
207	0xb8	-72
208	0x9d	-99
209	0xac	-84
210	0xfa	-6
211	0xc8	-56
212	0xbd	-67
213	0xcf	-49
214	0x52	82
215	0x63	99
216	0x6b	107
217	0xd1	-47
218	0x4a	74
219	0x66	102
220	0xf2	-14
221	0x64	100
222	0xda	-38
223	0xec	-20
224	0x6c	108
225	0x56	86
226	0x24	36
227	0x2c	44
228	0x16	22
229	0x82	-126
230	0xb0	-80
231	0xb1	-79
232	0xdb	-37
233	0x1d	29
234	0x22	34
235	0x5f	95
236	0x1c	28
237	0xb2	-78
238	0x97	-105
239	0x8a	-118
240	0x2b	43
241	0xf8	-8
242	0x62	98
243	0xb8	-72
244	0x09	9
245	0xd3	-45
246	0xd2	-46
247	0x4b	75
248	0x56	86
249	0x9d	-99
250	0xa4	-92
251	0x9b	-101
252	0x23	35
253	0x39	57
254	0xcd	-51
255	0x01	1

sequential_1/dense_1/MatMul i1 [512, 153]
0	0x34	52
1	0x38	56
2	0x53	83
3	0x8f	-113
4	0xe6	-26
5	0x73	115
6	0x60	96
7	0xb5	-75
8	0x0f	15
9	0x6c	108
10	0x81	-127
11	0x25	37
12	0x05	5
13	0x7a	122
14	0x06	6
15	0x52	82
16	0x56	86
17	0x20	32
18	0xe7	-25
19	0x3e	62
20	0xe1	-31
21	0x46	70
22	0x4b	75
23	0xb1	-79
24	0x63	99
25	0x2b	43
26	0xd8	-40
27	0xc8	-56
28	0xa2	-94
29	0x00	0
30	0xf9	-7
31	0x58	88
32	0x0b	11
33	0x57	87
34	0xf7	-9
35	0x43	67
36	0x01	1
37	0x5f	95
38	0x3f	63
39	0x6d	109
40	0x96	-106
41	0xba	-70
42	0xf3	-13
43	0xa4	-92
44	0xb8	-72
45	0xf9	-7
46	0x9e	-98
47	0x52	82
48	0xf0	-16
49	0x74	116
50	0x08	8
51	0xeb	-21
52	0xac	-84
53	0xe0	-32
54	0x48	72
55	0xe8	-24
56	0x48	72
57	0x1c	28
58	0x83	-125
59	0x12	18
60	0xf0	-16
61	0x25	37
62	0xfa	-6
63	0x07	7
64	0xfc	-4
65	0x3d	61
66	0x84	-124
67	0x06	6
68	0xe2	-30
69	0x4a	74
70	0x20	32
71	0x30	48
72	0xd0	-48
73	0x38	56
74	0x95	-107
75	0x83	-125
76	0x76	118
77	0xec	-20
78	0xbc	-68
79	0xd2	-46
80	0xe8	-24
81	0x1e	30
82	0xcc	-52
83	0x26	38
84	0xa1	-95
85	0xb5	-75
86	0xd6	-42
87	0xa3	-93
88	0x57	87
89	0xee	-18
90	0x45	69
91	0x9e	-98
92	0x3f	63
93	0xf9	-7
94	0x17	23
95	0x63	99
96	0xe8	-24
97	0x34	52
98	0xba	-70
99	0x0f	15
100	0x0a	10
101	0xcc	-52
102	0x75	117
103	0xf9	-7
104	0xb8	-72
105	0xb4	-76
106	0xa2	-94
107	0x1d	29
108	0x48	72
109	0x84	-124
110	0xb4	-76
111	0xc6	-58
112	0x8d	-115
113	0x0c	12
114	0x42	66
115	0x0a	10
116	0x16	22
117	0x14	20
118	0xb0	-80
119	0x11	17
120	0xed	-19
121	0xaf	-81
122	0x0c	12
123	0x96	-106
124	0x68	104
125	0x2d	45
126	0x25	37
127	0xcd	-51
128	0x15	21
129	0xb5	-75
130	0x05	5
131	0xc6	-58
132	0x95	-107
133	0xa7	-89
134	0x34	52
135	0x8e	-114
136	0x48	72
137	0x1f	31
138	0xe7	-25
139	0x86	-122
140	0x8f	-113
141	0x34	52
142	0xf0	-16
143	0xe8	-24
144	0x39	57
145	0x15	21
146	0x87	-121
147	0x29	41
148	0x63	99
149	0xf9	-7
150	0xda	-38
151	0xb7	-73
152	0xdf	-33
153	0x94	-108
154	0xe4	-28
155	0x98	-104
156	0x74	116
157	0x22	34
158	0xbf	-65
159	0xc5	-59
160	0xe1	-31
161	0xe5	-27
162	0xf3	-13
163	0xff	-1
164	0xfc	-4
165	0x5b	91
166	0x1c	28
167	0xeb	-21
168	0xce	-50
169	0x34	52
170	0x41	65
171	0xe3	-29
172	0x60	96
173	0xb4	-76
174	0x9e	-98
175	0xa6	-90
176	0x32	50
177	0xbb	-69
178	0x98	-104
179	0xef	-17
180	0xea	-22
181	0x75	117
182	0xda	-38
183	0x0c	12
184	0xce	-50
185	0xb0	-80
186	0xa7	-89
187	0x8b	-117
188	0x26	38
189	0xc5	-59
190	0x18	24
191	0x7d	125
192	0x6c	108
193	0x7b	123
194	0xfc	-4
195	0xad	-83
196	0x27	39
197	0x62	98
198	0x46	70
199	0xb4	-76
200	0xfe	-2
201	0x36	54
202	0x43	67
203	0xe7	-25
204	0x71	113
205	0x7b	123
206	0x27	39
207	0x37	55
208	0x59	89
209	0x5e	94
210	0xcf	-49
211	0xc1	-63
212	0x13	19
213	0xc3	-61
214	0x4b	75
215	0x28	40
216	0x34	52
217	0x18	24
218	0x51	81
219	0x79	121
220	0x37	55
221	0xf2	-14
222	0xc5	-59
223	0x5d	93
224	0x66	102
225	0x56	86
226	0xc2	-62
227	0x79	121
228	0xea	-22
229	0x77	119
230	0x2d	45
231	0xac	-84
232	0xd3	-45
233	0xb4	-76
234	0x7e	126
235	0x92	-110
236	0x25	37
237	0xa2	-94
238	0xb1	-79
239	0x4c	76
240	0x59	89
241	0x60	96
242	0xad	-83
243	0xcc	-52
244	0xef	-17
245	0xc0	-64
246	0x9a	-102
247	0x83	-125
248	0xb3	-77
249	0x2b	43
250	0xcf	-49
251	0xa3	-93
252	0xc6	-58
253	0x51	81
254	0x5c	92
255	0x01	1
